…
0&gt;, &lt;tensorflow.python.keras.layers.core.Dense at 0x13e4b1b90&gt;, &lt;tensorflow.python.keras.layers.core.Dense at 0x137080b10&gt;, &lt;tensorflow.python.keras.layers.core.Dense at 0x13e4a1a10&gt;, &lt;tensorflow.python.keras.layers.noise.AlphaDropout at 0x136ed69d0&gt;, &lt;tensorflow.python.keras.layers.core.Dense at 0x1370af710&gt;]In[11]: 1model.summary() #打印模型的结构 Out[8]: Model: &quot;sequential&quot; _________________________________________________________________ Layer (type) Output Shape Param # ================================================================= flatten (Flatten) (None, 784) 0 _________________________________________________________________ dense (Dense) (None, 100) 78500 _________________________________________________________________ dense_1 (Dense) (None, 100) 10100 _________________________________________________________________ dense_2 (Dense) (None, 100) 10100 _________________________________________________________________ dense_3 (Dense) (None, 100) 10100 _________________________________________________________________ dense_4 (Dense) (None, 100) 10100 _________________________________________________________________ dense_5 (Dense) (None, 100) 10100 _________________________________________________________________ dense_6 (Dense) (None, 100) 10100 _________________________________________________________________ dense_7 (Dense) (None, 100) 10100 _________________________________________________________________ dense_8 (Dense) (None, 100) 10100 _________________________________________________________________ dense_9 (Dense) (None, 100) 10100 _________________________________________________________________ dense_10 (Dense) (None, 100) 10100 _________________________________________________________________ dense_11 (Dense) (None, 100) 10100 _________________________________________________________________ dense_12 (Dense) (None, 100) 10100 _________________________________________________________________ dense_13 (Dense) (None, 100) 10100 _________________________________________________________________ dense_14 (Dense) (None, 100) 10100 _________________________________________________________________ dense_15 (Dense) (None, 100) 10100 _________________________________________________________________ dense_16 (Dense) (None, 100) 10100 _________________________________________________________________ dense_17 (Dense) (None, 100) 10100 _________________________________________________________________ dense_18 (Dense) (None, 100) 10100 _________________________________________________________________ dense_19 (Dense) (None, 100) 10100 _________________________________________________________________ alpha_dropout (AlphaDropout) (None, 100) 0 _________________________________________________________________ dense_20 (Dense) (None, 10) 1010 ================================================================= Total params: 271,410 Trainable params: 271,410 Non-trainable params: 0 _________________________________________________________________In[12]: 1# 第一层 [None, 784] * w + b -&gt; [None, 300] w.shape=[784,300], b=[300] In[13]: 123456789101112131415# TensorBoard,EarlyStopping,ModelCheckPointlogdir='./dnn-selu-dropout-callbacks' # 设置一个
…
